Models/PyTorch/checkpoint_best.pt (torch, 10757 bytes, 16 tensors)

encoder.linear1.weight f4 [16, 29]
0	0x3eeebee3	0.4663001
1	0xbdea9a16	-0.11455171
2	0x3bc98cd3	0.0061508208
3	0xbf59de61	-0.8510495
4	0xbe8606b0	-0.26176977
5	0xbdd21695	-0.102582134
6	0xbca7dd5c	-0.020491295
7	0xbf102f15	-0.5632184
8	0xbd80662b	-0.06269487
9	0xbe5dc4ac	-0.21657056
10	0x3e34d6cd	0.17660065
11	0xbe1dce58	-0.15410745
12	0xbbbe2f48	-0.005803976
13	0xbe0db3f2	-0.13838175
14	0xbe4d6638	-0.20058525
15	0x3edc714d	0.43055192
16	0xbe452e75	-0.19256003
17	0xbed718ce	-0.42011112
18	0xbdae6bfa	-0.08516689
19	0xbe9d7173	-0.30750617
20	0xbf166806	-0.5875248
21	0xbf2d34f4	-0.67658925
22	0x3e295e50	0.16539884
23	0x3de3f26e	0.11130224
24	0xbeea8f0b	-0.45812258
25	0x3fe1a078	1.7627096
26	0xbdb1bc8c	-0.086785406
27	0x3cbc2421	0.022966446
28	0xbc1872cc	-0.009304713
29	0x3ff460bb	1.909202
30	0xbf9b5531	-1.2135373
31	0xbf471bea	-0.7777697
32	0x3e9d2d59	0.3069866
33	0xbeaac8e3	-0.3335639
34	0xbe05942c	-0.13044804
35	0xbf1877ff	-0.595581
36	0xbd971773	-0.073775195
37	0x3f04f19a	0.51931155
38	0x3e62e865	0.22158964
39	0x3e5797c1	0.21053983
40	0x3e830464	0.25589287
41	0x3d385dd6	0.045011364
42	0x3d2ce48e	0.042210154
43	0x3e242d08	0.16032803
44	0x3d696339	0.05697939
45	0xbdcc63d5	-0.09979979
46	0xbe44eed9	-0.19231738
47	0xbe6905e3	-0.22756152
48	0xbf3d96ba	-0.74058115
49	0xbe3a773b	-0.18209545
50	0xbe81232b	-0.25222144
51	0x3e711d89	0.23546423
52	0xbcd5c5cd	-0.026095295
53	0x3f100ed7	0.56272644
54	0x3e55c41d	0.20875593
55	0x3d9b35b9	0.07578606
56	0xbe4237d3	-0.18966608
57	0x3e87eebd	0.2654933
58	0xbe790805	-0.24319465
59	0xbf33c9ca	-0.7022978
60	0x3ea36109	0.3190997
61	0x3f05f23e	0.5232276
62	0x3fa566b0	1.2921963
63	0xbf9301a9	-1.1484882
64	0xbf4f593c	-0.80995536
65	0x3e7dd0cf	0.24786685
66	0x3e8a64bb	0.27029976
67	0xbe2a4a3b	-0.16629879
68	0xbe526ccc	-0.20549315
69	0x3e576ddb	0.21038
70	0xbe517d93	-0.20458059
71	0x3eaed7f3	0.3414913
72	0xbe4ca3fd	-0.19984432
73	0x3bf7043f	0.007538348
74	0x3da67909	0.081285544
75	0xbdc7c9fb	-0.097553216
76	0x3cdc28b0	0.02687487
77	0x3ff4f083	1.9135898
78	0x3fc698ac	1.5515342
79	0xbf2cd0e2	-0.6750623
80	0xbf7828c4	-0.96937203
81	0x3b85a1ea	0.0040781396
82	0xbf02b3d4	-0.51055646
83	0x3d2c6002	0.042083748
84	0x3cd8f60f	0.026484517
85	0xbe79107b	-0.24322693
86	0x3f51bf4b	0.81932515
87	0x3f421a72	0.758216
88	0xb75bdeb9	-1.3105274e-05
89	0xbeadfa3c	-0.33979976
90	0x3eb7c09b	0.35889134
91	0xbd586fab	-0.05284087
92	0xbe06988e	-0.13144132
93	0x3ca92ae2	0.02065033
94	0x3f44ac46	0.7682537
95	0x3f040269	0.5156618
96	0x3dbf5851	0.09343017
97	0x3e6b3f5e	0.22973391
98	0xbcd7a357	-0.026323004
99	0xbccad809	-0.024761217
100	0xbdaeed57	-0.08541363
101	0x3e869141	0.26282695
102	0x3db48bd3	0.08815732
103	0x3d954378	0.07288259
104	0xbefb9c80	-0.49142838
105	0x3eba4c4c	0.36386335
106	0x3f24cadd	0.64372045
107	0x3f2e64ad	0.6812237
108	0x3d269dc7	0.040677812
109	0x3d3a3083	0.04545642
110	0xbdc86e2e	-0.0978664
111	0x3e2af283	0.16694073
112	0xbd976dba	-0.073939756
113	0xbe264998	-0.16239011
114	0x3b0b0a2e	0.0021215784
115	0x3d274061	0.04083288
116	0x3ee696aa	0.45036823
117	0x3fac9ca6	1.3485305
118	0x3cbeec4a	0.02330603
119	0xbec80183	-0.39063653
120	0xbf1c14af	-0.6096906
121	0x3efffd61	0.49998
122	0xbf33c204	-0.7021792
123	0xbfc16e2a	-1.5111744
124	0xbdb3c0b7	-0.08776992
125	0xbe17886b	-0.14798133
126	0xbe4d56c4	-0.2005263
127	0x3e74a0b2	0.23889425
128	0x3c9c78e7	0.01910062
129	0x3e9a73de	0.30166525
130	0xbe2e8048	-0.17041123
131	0x3e041c30	0.12901378
132	0x3f18d2b7	0.59696525
133	0xbd9eebbd	-0.07759807
134	0x3eb088e9	0.34479454
135	0xbf6f1636	-0.93393266
136	0x40244bca	2.5671258
137	0xbfa4711e	-1.2847021
138	0x3e571d1f	0.21007203
139	0xbbeeb947	-0.0072852704
140	0x3d904ebe	0.07046269
141	0x3d97cb0e	0.074117765
142	0xbde19ff8	-0.1101684
143	0xbe76a22a	-0.24085298
144	0xbf097ec9	-0.53709084
145	0xbed355b4	-0.41276324
146	0xbf042cf3	-0.5163109
147	0xbed3fef8	-0.41405463
148	0x3ef81c65	0.48459163
149	0xbf774b4c	-0.9659927
150	0x3f4b8d76	0.7951273
151	0x3fa9a14a	1.3252347
152	0xbf476ef0	-0.7790365
153	0xbd14333c	-0.036181673
154	0xbf212f5f	-0.6296291
155	0xbe18c17e	-0.14917561
156	0xbd7b5ed2	-0.061369725
157	0xbe0410af	-0.1289699
158	0x3e668a02	0.22513583
159	0xbe863c8f	-0.26218078
160	0x3e9915b4	0.2989937
161	0xbe55a2a0	-0.20862818
162	0x3e2f1ad1	0.17100073
163	0x3db416ab	0.08793386
164	0x3f5237d6	0.8211645
165	0x3f72a75c	0.9478662
166	0xbe8bf570	-0.2733569
167	0x3ec035a1	0.37540916
168	0x3e48d314	0.1961177
169	0x3c10c629	0.008836308
170	0x3e1d44e1	0.15358306
171	0x3e64a4c9	0.22328486
172	0xbe7e2cca	-0.24821773
173	0x3fa06b0f	1.2532672
174	0xbecc6d7f	-0.3992729
175	0xbccc40c0	-0.024933219
176	0xbeddc873	-0.43316993
177	0xbcbcea7e	-0.023061033
178	0x37d159d1	2.4956566e-05
179	0xbd02c782	-0.031928547
180	0x3d28f371	0.04124779
181	0xbf0885e4	-0.533293
182	0x3f8931bb	1.0718302
183	0x3f034b23	0.51286525
184	0x3ef1b392	0.47207314
185	0x3e6e8ff6	0.23297104
186	0x3e179ea2	0.14806607
187	0xbec1caef	-0.3785014
188	0x3e5c8fed	0.21539278
189	0x3ed00759	0.40630606
190	0xbe225d0a	-0.15855804
191	0xbeccee55	-0.40025583
192	0x3efca60e	0.4934544
193	0xbf2f4769	-0.6846834
194	0xbf0fa670	-0.5611334
195	0xbe953bc8	-0.29147172
196	0xbd0bf91c	-0.034173116
197	0xbe719bd7	-0.23594604
198	0x3ef52d83	0.47886285
199	0xbcb8e04c	-0.02256789
200	0xbf9615ff	-1.1725463
201	0x3fbe15ce	1.4850404
202	0xbf6506f4	-0.89463735
203	0x3e4533ca	0.19258037
204	0xbe21e6d4	-0.1581071
205	0xbe00d8cc	-0.12582701
206	0x3e2ce883	0.16885571
207	0xbdfc67ee	-0.123245105
208	0x3c83b3ef	0.01607701
209	0xbdfda8f2	-0.123857394
210	0x3b6bef47	0.0036000775
211	0x3d16fb3e	0.036860697
212	0x3ec50c30	0.3848586
213	0xbc264fd2	-0.010150867
214	0x3dcae77a	0.09907432
215	0x3da6e4cf	0.081491105
216	0x3dc78e4c	0.09743938
217	0x3e486960	0.19571447
218	0xbed9f640	-0.42570686
219	0x3db5c4fe	0.08875464
220	0x3ea325b3	0.318647
221	0x3dd8bb6e	0.105826244
222	0xbe8c565d	-0.2740964
223	0xbeca5983	-0.39521417
224	0xbdf01ac7	-0.117238574
225	0xbd785e83	-0.06063701
226	0x3db4c45c	0.08826515
227	0xbd48fe18	-0.049070448
228	0x3dcb342b	0.099220596
229	0x3e88681e	0.26641935
230	0xbe50ff16	-0.20409808
231	0x3e3ee8ed	0.18643542
232	0x3f1a8169	0.60353714
233	0x3fd66130	1.6748409
234	0x3ec94c77	0.3931615
235	0x401269f9	2.287718
236	0x3ef16cee	0.4715342
237	0x3edcadc9	0.43101338
238	0x3d36bdb6	0.044614516
239	0x3e7ff215	0.2499469
240	0xbcb3aad8	-0.02193205
241	0x3f1fc1a9	0.62404877
242	0xbec8468c	-0.39116323
243	0x3dd0fbec	0.102043
244	0xbe35e07f	-0.1776142
245	0x3e9d6b3c	0.30745876
246	0xbf378812	-0.71692
247	0x3ee20050	0.44140863
248	0xbf4b9112	-0.79518235
249	0x3e8f15c4	0.27946293
250	0xbfb3a0d7	-1.403346
251	0x3ebd2a39	0.36946276
252	0xbf5967ba	-0.849239
253	0x3da67625	0.08128003
254	0xbeb133eb	-0.34609923
255	0x3d203dd6	0.03912147

encoder.linear1.bias f4 [16]
0	0x3f09ae20	0.5378132
1	0x3e378e74	0.17925435
2	0xc06c844f	-3.6955755
3	0x3fa09f4c	1.2548614
4	0xc0c0d284	-6.0256977
5	0xc0584d0e	-3.379703
6	0xc09f2320	-4.9730377
7	0x3ff0b4c6	1.8805168
8	0xbfae2f28	-1.3608141
9	0xc098c37f	-4.7738643
10	0xc00e764d	-2.2259705
11	0xc0973bb6	-4.726039
12	0xbf9d3ac9	-1.2283565
13	0xc0b1748a	-5.545476
14	0x3f5adff4	0.85497975
15	0xc09d8235	-4.9221444

encoder.linear2.weight f4 [8, 16]
0	0x3c5d81b7	0.013519696
1	0xbcd4822b	-0.025940975
2	0x3f18aacb	0.5963561
3	0xbd214541	-0.039372686
4	0xbe9a614f	-0.30152366
5	0x3f3a60e0	0.7280407
6	0x3d4fcd29	0.050732765
7	0x3eccbd88	0.3998835
8	0x3e19bfff	0.15014647
9	0x3f73e2a3	0.95267695
10	0xbf24d74e	-0.6439103
11	0x3f61f77b	0.8826825
12	0xbefc6031	-0.49292138
13	0xbe70e139	-0.23523416
14	0x3eef502e	0.4674086
15	0x3f560e44	0.8361552
16	0x3e8e3619	0.27775648
17	0xbde906b7	-0.11378234
18	0xbf8a33a4	-1.079701
19	0x3e64290a	0.2228128
20	0x3edd5f92	0.43236977
21	0xbf48333b	-0.7820317
22	0xbf086dee	-0.5329274
23	0xbdbead04	-0.09310344
24	0x3ed2a43a	0.4114092
25	0x3e8facbd	0.28061476
26	0xbf3bf7bd	-0.73424894
27	0xbd9f1ea1	-0.07769514
28	0x3f40a0bb	0.75245255
29	0xbf872d18	-1.0560637
30	0x3f015390	0.5051813
31	0x3f15e1dc	0.5854776
32	0xbcd53a8e	-0.026028898
33	0xbf91b448	-1.1383142
34	0xbe0fa566	-0.14027938
35	0x3e7ab862	0.24484399
36	0x3fa2700e	1.2690446
37	0xbd19a39e	-0.037509553
38	0x3efb7556	0.49112958
39	0x3f608e45	0.87717086
40	0xbc65c36d	-0.014023644
41	0x3faace9e	1.3344305
42	0xbde0cbf5	-0.10976402
43	0x3f8dc44d	1.1075531
44	0x3e727f42	0.23681358
45	0xbe6a1762	-0.22860482
46	0xbe763eb2	-0.24047354
47	0x3e8eb563	0.27872762
48	0xbe0d1ceb	-0.13780563
49	0x3ec5e550	0.38651514
50	0x3f1c4d89	0.6105581
51	0xbf82f661	-1.0231439
52	0xbee3b701	-0.44475558
53	0x3e9c0ae1	0.3047705
54	0x3f8fbde8	1.122983
55	0x3f4151f3	0.7551567
56	0xbe33aa6e	-0.17545483
57	0xbdbdf2d1	-0.09274829
58	0xbd8df783	-0.06931975
59	0x3dd81678	0.105511606
60	0xbe7533ab	-0.23945491
61	0x3db17696	0.086651966
62	0xbeccf711	-0.40032247
63	0x3ea7dafe	0.32784265
64	0x3f744260	0.9541378
65	0xbe976a7c	-0.2957343
66	0xc02fb598	-2.7454586
67	0x3f4534ed	0.77033883
68	0x3f8b7531	1.0895139
69	0xbffa3ef1	-1.9550458
70	0xbf745d0c	-0.9545448
71	0x3d06ffcb	0.032958787
72	0x3f83794e	1.0271394
73	0x3f99c96c	1.2014594
74	0xbfff6954	-1.9954019
75	0xbf44c191	-0.7685786
76	0x3fd02ab0	1.6263027
77	0xc03ad64f	-2.9193304
78	0x3fc01e68	1.5009279
79	0x3ff6e919	1.9289886
80	0xbd88cf21	-0.06680132
81	0x3e6d250c	0.23158664
82	0x3eb62acb	0.35579523
83	0xbee91f2b	-0.45531592
84	0xbe51f68a	-0.20504203
85	0x3c82e3c4	0.015977748
86	0xbeb559c0	-0.35420036
87	0x3df76f33	0.120817564
88	0xbb77fc4b	-0.0037839587
89	0x3ebff314	0.3749014
90	0xbe0bae86	-0.13640794
91	0xbfe79f6e	-1.8095529
92	0xbe6b7260	-0.2299285
93	0x3f5d14bd	0.8635977
94	0x3c8b4f1a	0.017005492
95	0x3cd09310	0.02546075
96	0x3f20b6d5	0.6277898
97	0x3d5d29d3	0.053994965
98	0xbfc24cc1	-1.5179673
99	0x3eadd2c6	0.3394987
100	0x3f5a87eb	0.85363644
101	0xbfa35d8b	-1.2762922
102	0xbf24686d	-0.6422184
103	0xbe871b75	-0.26388136
104	0x3f41d2e4	0.7571242
105	0x3fb2c5d5	1.3966624
106	0xbfa7eb16	-1.3118618
107	0xbef4de4d	-0.47825852
108	0x3f2d36fd	0.6766203
109	0xbfa0c2f1	-1.2559491
110	0x3f9d0658	1.2267561
111	0x3fe6d10d	1.8032547
112	0xbcd5940b	-0.026071569
113	0x3eb95d07	0.36203787
114	0x3de32f9b	0.110930644
115	0x3e2d829e	0.16944358
116	0xbf77dc0a	-0.9682013
117	0xbdd80299	-0.105473705
118	0x3f1c0ce3	0.60957164
119	0x3e9c2526	0.30497092
120	0x3f01d6bb	0.5071828
121	0x3e03e7d2	0.12881401
122	0xbd9c2b90	-0.076254964
123	0x3e6ca60e	0.2311022
124	0xbf6a4871	-0.91516787
125	0xbe811d83	-0.25217828
126	0x3f67e5f4	0.90585256
127	0xbf8b393f	-1.0876845

encoder.linear2.bias f4 [8]
0	0x404235bd	3.03453
1	0xbf457ea4	-0.77146363
2	0x4003d74d	2.060016
3	0x3f2124ef	0.6294698
4	0xbff62053	-1.9228615
5	0xbfebfc7c	-1.8436427
6	0x3ec07f6a	0.3759721
7	0xbe20f812	-0.15719631

encoder.linear3.weight f4 [4, 8]
0	0x3f9f719f	1.245655
1	0x3d62fd86	0.05541756
2	0xbf346c9e	-0.70478237
3	0x3f86558a	1.0494854
4	0xc08802b9	-4.2503324
5	0xbf7e49ff	-0.9933166
6	0xbf77663a	-0.9664036
7	0xbe3d1a88	-0.18467152
8	0x3faa05a6	1.3282974
9	0xbefcc07c	-0.49365604
10	0xbe7ce1f7	-0.24695574
11	0x3f235718	0.6380477
12	0xc09e0de7	-4.939197
13	0x3e8b1a90	0.27168703
14	0xbea8a6cf	-0.32939765
15	0xbf05d70b	-0.52281255
16	0xbbcd88ec	-0.006272426
17	0x3f4c3ad8	0.7977729
18	0x3ee5dda7	0.4489567
19	0xbe38b307	-0.18037044
20	0xbebf97c7	-0.37420484
21	0xbe2ba536	-0.16762242
22	0x3d81a4d3	0.06330266
23	0x3dc04f35	0.093901075
24	0x3d10d76e	0.0353617
25	0xbf05cd9a	-0.5226685
26	0x3f47e2c6	0.78080404
27	0xbd893a54	-0.06700578
28	0xbe771ad6	-0.24131331
29	0xbf178363	-0.59184855
30	0x3f3be50b	0.73396367
31	0xbe81e662	-0.2537108

encoder.linear3.bias f4 [4]
0	0xc065118a	-3.5791955
1	0xbfbf5884	-1.4948888
2	0x3fa4ec0c	1.2884536
3	0x3fc36b6a	1.5267155

encoder.linear4.weight f4 [2, 4]
0	0x3fb8cd3b	1.4437631
1	0xbeb15c98	-0.34640956
2	0x3f4a38b2	0.7899276
3	0x3eef4898	0.46735072
4	0x3d867ccc	0.06566772
5	0xbf82bc0d	-1.0213639
6	0xbf4dc5d7	-0.80380005
7	0x3f235c97	0.63813156

encoder.linear4.bias f4 [2]
0	0xbf3ffcbc	-0.7499502
1	0x3f003a35	0.50088817

decoder.linear1.weight f4 [4, 2]
0	0xbfa1a7db	-1.262935
1	0x3ffd38ee	1.9782999
2	0x3ec5e975	0.38654676
3	0xbe8208fa	-0.25397474
4	0x3f8bdc14	1.0926538
5	0x3f7639d6	0.96182
6	0x3dd6f689	0.104962416
7	0xbf6d0cb5	-0.92597514

decoder.linear1.bias f4 [4]
0	0x3f7c7737	0.9861941
1	0x3eb4169f	0.3517351
2	0x3f558107	0.83400005
3	0x3f495176	0.78639925

decoder.linear2.weight f4 [8, 4]
0	0xbebadaa1	-0.36494926
1	0x3f3de9cd	0.74184877
2	0x3e99dd63	0.30051717
3	0xbe63d4cf	-0.22249149
4	0xbf76ac46	-0.9635662
5	0x3cc3aa40	0.023884892
6	0x3f6e8767	0.9317536
7	0xbce43ec9	-0.02786197
8	0x3ed791c7	0.42103407
9	0x3eb97285	0.36220184
10	0xbf88522e	-1.0650079
11	0x3f14500b	0.57934636
12	0xbf821b40	-1.0164566
13	0x3e9144c7	0.28372785
14	0xbdc8b967	-0.09800988
15	0x3e7a305f	0.24432515
16	0x3fba27c5	1.4543387
17	0xbb8a2d6d	-0.004216841
18	0x3dc09b31	0.094046004
19	0x3eb7349c	0.35782325
20	0x3e845f17	0.25853798
21	0x3ed11a8e	0.40840572
22	0x3f2a91e8	0.66628885
23	0x3e8ba326	0.2727291
24	0xbeb2980f	-0.34881637
25	0x3f205d9e	0.6264285
26	0x3f6ad30d	0.9172829
27	0xbe8577d3	-0.2606798
28	0x3edd646e	0.43240684
29	0xbf27fa7f	-0.656166
30	0x3f8f27a8	1.1183977
31	0xc004e8a7	-2.0767

decoder.linear2.bias f4 [8]
0	0x3f6c4f95	0.9230893
1	0xbe6a1561	-0.22859718
2	0xbf862e0f	-1.0482806
3	0x4020b90a	2.511294
4	0x3f2cee25	0.6755088
5	0xbfaabae4	-1.3338284
6	0x3e74d90b	0.2391092
7	0xbeb6a051	-0.35669187

decoder.linear3.weight f4 [16, 8]
0	0x3f38684e	0.72034156
1	0x3e47a1f8	0.1949538
2	0x3ded392b	0.115831695
3	0xbeb843d7	-0.35989258
4	0xbd1c1c76	-0.03811308
5	0x3d22ed64	0.039777175
6	0x3d608ee6	0.05482378
7	0xbd1379a3	-0.036004674
8	0xc02c48aa	-2.691935
9	0xc00ff362	-2.24923
10	0xbf371ce8	-0.7152848
11	0x400dd881	2.2163393
12	0xbecf9ff7	-0.4055173
13	0xbfa02edb	-1.2514299
14	0xc0859f25	-4.175677
15	0x3e9b5779	0.30340174
16	0x3dc48d7d	0.09597299
17	0x3ccacabb	0.024754873
18	0xbe957348	-0.29189515
19	0xbea59faf	-0.3234839
20	0x3f0e25f6	0.55526674
21	0x3e890381	0.26760486
22	0x3cfc4b58	0.030797645
23	0xbf9acaef	-1.209318
24	0x3d67d85c	0.05660282
25	0x3e2508b7	0.16116606
26	0x3e9e5fac	0.30932367
27	0x3ee351c2	0.44398314
28	0x3e99dd6c	0.30051744
29	0x3e8e0211	0.27735952
30	0xbf0c77b7	-0.5487017
31	0xbeab112b	-0.33411536
32	0xbf6e693a	-0.93129313
33	0xbf1f88c9	-0.6231809
34	0xbf30939d	-0.6897524
35	0x3f44f0ad	0.7692974
36	0xbe216994	-0.15762931
37	0x3f013265	0.5046752
38	0xbf7ac75f	-0.97960466
39	0xbe36d1db	-0.17853491
40	0x3ea27dd2	0.31736618
41	0xbf278260	-0.6543331
42	0x3ed5d6c2	0.4176541
43	0x3edbd267	0.42933962
44	0x3d51e83b	0.051246863
45	0x3e8b80d1	0.27246717
46	0xbf00e121	-0.5034352
47	0xbdd0f2a1	-0.10202528
48	0xbf0bf978	-0.54677534
49	0xbd18075b	-0.03711639
50	0xbeea096d	-0.45710316
51	0xbfb7219d	-1.4307133
52	0xbe1a962c	-0.15096349
53	0xbf0194f6	-0.5061792
54	0xbe92d121	-0.28675178
55	0x3f6215df	0.8831462
56	0xbf1d43fc	-0.6143186
57	0x3ebb43d9	0.365752
58	0xbe9a2562	-0.30106646
59	0xbfa637ff	-1.2985839
60	0xbdfe2d6f	-0.124110095
61	0xbf18d354	-0.5969746
62	0xbded83d7	-0.11597412
63	0x3f0eeea4	0.55832887
64	0x3e6a3b3b	0.22874157
65	0x3e9d7a6f	0.30757472
66	0xbe78c23d	-0.24292846
67	0xbe8fe5b8	-0.2810495
68	0x3ed2dc7c	0.4118384
69	0x3e8dcb89	0.27694348
70	0xbd811c01	-0.063041694
71	0xbf10d0af	-0.56568426
72	0x3e67c52e	0.22633812
73	0xbee6b335	-0.450586
74	0xbfe0a89c	-1.7551455
75	0x3f0a8edf	0.54124254
76	0xbee60782	-0.44927603
77	0x3f4c2c4c	0.7975509
78	0xbf700d41	-0.93770224
79	0xbf86abeb	-1.0521215
80	0x3ebe2b63	0.37142476
81	0x3d25ab69	0.040446673
82	0xbf5a4508	-0.85261583
83	0xbed831ab	-0.42225394
84	0xbd992ee9	-0.074796505
85	0x3ee742bf	0.4516811
86	0x3e97699c	0.2957276
87	0xbe9f9187	-0.31165716
88	0xbea30735	-0.31841436
89	0xbeba7a5f	-0.36421487
90	0xbd25aa54	-0.04044564
91	0xbe6320b7	-0.22180448
92	0x3d5b17db	0.053489547
93	0x3ef2e00f	0.47436568
94	0x3f0fb931	0.56141955
95	0xbe4e1058	-0.20123422
96	0xbf3333f1	-0.7000113
97	0x3c9b1601	0.01893139
98	0xbd48a168	-0.048982054
99	0xbf84d822	-1.0378458
100	0xbed205a5	-0.4101993
101	0xbf306ea7	-0.6891884
102	0xbddf513b	-0.10904165
103	0x3f86fbd2	1.05456
104	0x3d3516b4	0.044211105
105	0x3edf3b81	0.43600085
106	0xbd8ee7a6	-0.06977777
107	0x3eeb3a2a	0.45942813
108	0xbe68705d	-0.22699113
109	0xbdc9ccf9	-0.098535486
110	0xbc6812f2	-0.014164673
111	0xbead94b2	-0.33902508
112	0x3d99b0fe	0.07504462
113	0xbecabc70	-0.3959689
114	0x3dcafa64	0.099110395
115	0xbeba360b	-0.36369357
116	0x3ebe3722	0.37151438
117	0x3efd2e35	0.49449316
118	0xbe4cc2a1	-0.1999612
119	0xbf912468	-1.1339235
120	0xbfe84e96	-1.8148983
121	0x40008ea5	2.0087063
122	0xc045a9f7	-3.0884988
123	0x3f0a9002	0.5412599
124	0xbe0e714e	-0.1391041
125	0xbef992cc	-0.4874481
126	0xc04b4c70	-3.1765404
127	0xbe4c95de	-0.19979045

decoder.linear3.bias f4 [16]
0	0x3d0d248f	0.034458693
1	0x3f6216e4	0.8831618
2	0x3eaf21bd	0.34205428
3	0xbf70db89	-0.94084984
4	0x3d04a44a	0.03238324
5	0xbf12d70c	-0.57359385
6	0xc0129425	-2.290292
7	0x3f84d422	1.0377238
8	0x3f121def	0.57076925
9	0xbfdbb259	-1.7163802
10	0xbf0a9d32	-0.5414611
11	0xbce0823c	-0.02740585
12	0xbf775012	-0.9660655
13	0xbef22731	-0.47295526
14	0x3f8f5fe2	1.1201136
15	0x3f9d1c29	1.2274219

decoder.linear4.weight f4 [29, 16]
0	0x3e885bde	0.2663259
1	0x3e940425	0.28909412
2	0xbde52090	-0.111878514
3	0xbe50882c	-0.20364445
4	0xbf7662f2	-0.9624473
5	0x3d048f38	0.032363147
6	0x3e3ddac5	0.18540485
7	0xbdab7b44	-0.083731204
8	0x3e7e7b35	0.24851687
9	0x3f37c1d4	0.71780133
10	0xbe8d0942	-0.27546126
11	0xbe0d397d	-0.13791461
12	0xbe224c3a	-0.1584939
13	0xbdef2623	-0.11677196
14	0x3dc4cee8	0.09609777
15	0x3ee77c51	0.45212033
16	0x3dcf42e2	0.10120179
17	0xbdce9d55	-0.100886025
18	0xbe861a9c	-0.26192176
19	0xbe0fef31	-0.14056088
20	0x3f14997a	0.58046687
21	0xbe217fdc	-0.1577143
22	0xbe25f1f1	-0.16205575
23	0xbe17270f	-0.14760993
24	0x3da33cba	0.07970567
25	0xbe78315a	-0.24237576
26	0xbe1c1d59	-0.1524557
27	0x3e372187	0.17883883
28	0x3e7f6fc3	0.24944977
29	0xbde19388	-0.110144675
30	0x3e06fdbf	0.13182734
31	0xbdcba9ba	-0.09944482
32	0xbd4b526b	-0.049639147
33	0xbe24bc27	-0.160874
34	0x3b4c6db0	0.0031193309
35	0x3c2c34d0	0.010510638
36	0x3f23f5f1	0.6404715
37	0x3ce64df6	0.028113347
38	0x3e5b62ca	0.21424404
39	0xbe0bd8da	-0.13656941
40	0x3d900b4f	0.07033407
41	0xbb2bdf2b	-0.0026225548
42	0x3d266bca	0.04063014
43	0xbd1e148f	-0.038593825
44	0xbe82ac8c	-0.25522268
45	0xbe73068e	-0.23732969
46	0xbdc8fd01	-0.09813882
47	0xbeeae4ae	-0.45877594
48	0xbd772384	-0.060336605
49	0x3e0f5923	0.13998847
50	0x3b221066	0.0024729013
51	0x3e5e7fe3	0.21728472
52	0xbf46c62c	-0.77646136
53	0x3d8681c4	0.065677196
54	0xbed6ab12	-0.4192739
55	0xbfa3173a	-1.2741463
56	0x3f1c7184	0.6111071
57	0xbf3a4d0e	-0.72773826
58	0x3d09a8b3	0.03360815
59	0xbddd5a6a	-0.10808261
60	0x3f8fcd99	1.1234618
61	0xbf7f4763	-0.997183
62	0xbee1a644	-0.44072163
63	0x3f5c2cb2	0.860057
64	0xbedb3a3e	-0.42817873
65	0xbe77dd08	-0.2420541
66	0x3cd6ef32	0.026237104
67	0x3d0451bb	0.032304507
68	0x3f4ca6b5	0.79941875
69	0x3e0adce9	0.13560833
70	0x3e78318a	0.24237648
71	0x3d36f3f8	0.04466626
72	0xbe6d1767	-0.23153459
73	0xbf330bf5	-0.6994012
74	0x3ee7fc6b	0.45309767
75	0xbcb80fb1	-0.02246842
76	0xbea5fce7	-0.32419512
77	0xbc7eaacf	-0.015543654
78	0x3ce2d80b	0.027690908
79	0xbcd9d4c2	-0.026590709
80	0x3e7e651f	0.24843262
81	0x3dbc191e	0.09184478
82	0xbdd63d95	-0.104609646
83	0x3ca3e5e9	0.02000709
84	0x3d4802e9	0.0488309
85	0xbdf8c2e6	-0.12146549
86	0xbd1b6ccd	-0.037945557
87	0xbec0a9ef	-0.3762965
88	0x3e894684	0.26811612
89	0xbcba63d9	-0.02275269
90	0xbe8f520e	-0.2799229
91	0x3db8c840	0.0902257
92	0x3e079bc7	0.13243018
93	0xbe5ff3ac	-0.21870297
94	0xbdd2364e	-0.10264264
95	0xbd9ff94d	-0.07811222
96	0x3e9fad69	0.3118699
97	0xbe5ac7bc	-0.21365255
98	0x3ec0ae9d	0.3763322
99	0x3dc6096b	0.09669765
100	0x3f86ba73	1.052565
101	0xbd955975	-0.07292453
102	0x3e0eed56	0.13957724
103	0x3e19589c	0.14975208
104	0x3b68f120	0.0035544112
105	0xbf13739b	-0.57598275
106	0xbef37b40	-0.4755497
107	0x3e599b82	0.21250728
108	0xbead49d8	-0.338454
109	0xbd07496f	-0.033029016
110	0xbedbd8ab	-0.42938742
111	0xbe81e418	-0.25369334
112	0xbdf4d8e9	-0.11955435
113	0xbb69bb00	-0.003566444
114	0x3f05eb5b	0.5231225
115	0x3ddfc262	0.109257475
116	0x3dfbdde4	0.12298182
117	0x3e3f13f2	0.18659952
118	0xbf49d90f	-0.7884683
119	0x3c5e3ec4	0.013564769
120	0xbd616c6b	-0.055035036
121	0x3d92767e	0.07151507
122	0xbd9b3d86	-0.07580094
123	0xbd08d31d	-0.03340446
124	0x3f68fe05	0.91012603
125	0xbe5fe6a3	-0.21865325
126	0xbf0d4ba6	-0.55193555
127	0xbd04cc31	-0.032421295
128	0xbe6f9449	-0.2339641
129	0xbc955821	-0.0182305
130	0x3e808066	0.2509796
131	0xbcf6675a	-0.030078579
132	0xbd91bfd6	-0.07116668
133	0x3d3ef8cc	0.04662399
134	0x3e091382	0.13386348
135	0x3f07c045	0.53027755
136	0xbf25ff92	-0.64843094
137	0xbf70f910	-0.9413004
138	0x3dc9df72	0.09857072
139	0x3ef0ae2b	0.4700788
140	0xbf1c2582	-0.6099473
141	0x3f010f8d	0.50414354
142	0xbdc1e5c2	-0.09467651
143	0x3f4ccd84	0.8000109
144	0xbe1752d1	-0.14777686
145	0x3eb64783	0.35601434
146	0x3ea98196	0.3310668
147	0xbd4c6c7b	-0.049908143
148	0xbfcb34b3	-1.5875458
149	0x3e0897b7	0.13339125
150	0x3e44c8d1	0.1921723
151	0xbf6cc3d6	-0.9248632
152	0x3b3feb4b	0.0029284533
153	0x3f7f2054	0.99658704
154	0x3ddc711a	0.1076376
155	0x3dfb44b1	0.12268961
156	0x3f0ff175	0.5622781
157	0xbf0df6ef	-0.55454916
158	0xbe2e76f6	-0.17037567
159	0xbc64d7fb	-0.013967509
160	0xbde84ddc	-0.113429755
161	0x3d6d60b6	0.05795356
162	0x3db31852	0.08744873
163	0x3da2975a	0.07939024
164	0xbd85fa2b	-0.065418564
165	0x3bcde67e	0.0062835803
166	0x3d3e0fd9	0.046401832
167	0x3e66ebad	0.2255084
168	0xbe6b65e2	-0.22988084
169	0xbd9fa98f	-0.077960126
170	0x3c62ef99	0.01385107
171	0x3e829640	0.25505257
172	0xbeab8a31	-0.3350387
173	0x3e2a9b9f	0.16660927
174	0xbe6fb2fc	-0.23408121
175	0x3e8f2fad	0.2796606
176	0xbdc4ddd9	-0.096126266
177	0x3d3e57a8	0.046470314
178	0xbdd31689	-0.103070326
179	0xbd2d192a	-0.042260326
180	0xbe2904ed	-0.16505785
181	0xbc7ac93b	-0.015306766
182	0xbe4be9f1	-0.1991346
183	0x3ea0b7e4	0.31390297
184	0xbe2d278a	-0.16909614
185	0xbef70b73	-0.48250923
186	0x3d9f5ad2	0.077809945
187	0x3ddd021c	0.10791418
188	0xbd8bedca	-0.06832464
189	0x3e94b8ff	0.2904739
190	0x3e230f46	0.15923795
191	0x3e560a13	0.2090228
192	0x3c5e0dff	0.013553142
193	0x3d818dd4	0.0632588
194	0x3db52fe6	0.088470265
195	0x3daa4f9d	0.08315966
196	0xbe89df8b	-0.26928362
197	0xbac59695	-0.0015074784
198	0xbd24cbfe	-0.040233605
199	0xbdc2d2ca	-0.09512861
200	0x3d596662	0.053076155
201	0x3e889db4	0.26682818
202	0x3ca884c9	0.02057113
203	0xbd95d70a	-0.07316406
204	0x3dff1734	0.124555975
205	0xbe2cc873	-0.1687334
206	0xbdf0fd85	-0.11767105
207	0xbda0e15f	-0.07855486
208	0x3d442e9a	0.047896005
209	0x3d7b48ab	0.0613486
210	0xbe7886f6	-0.24270234
211	0x3d3c827c	0.046022877
212	0xbe6133db	-0.21992438
213	0xbcd8a5e3	-0.026446288
214	0xbec034cd	-0.37540284
215	0xbdf81fc0	-0.12115431
216	0x3e79a8a5	0.24380739
217	0xbe3a7a61	-0.18210746
218	0xbc35734b	-0.011074851
219	0xbdf7d180	-0.12100506
220	0x3ee5cdd0	0.44883585
221	0xbde6d37e	-0.11270808
222	0x3d1fed99	0.03904495
223	0x3e334c2d	0.17509528
224	0xbea24277	-0.31691334
225	0x3e777833	0.24166946
226	0x3cfa91f2	0.03058717
227	0x3e2d662e	0.1693351
228	0xbf71fafe	-0.9452361
229	0xbcbff5b4	-0.02343259
230	0xbed8022f	-0.42189166
231	0x3ecbb9e6	0.39790267
232	0xbec0cfcd	-0.3765854
233	0xbd5fa942	-0.054604776
234	0x3d517359	0.051135395
235	0x3f1e18f1	0.6175681
236	0xbea44b32	-0.3208862
237	0x3e61b938	0.22043312
238	0xbed1f253	-0.4100519
239	0x3eeb420f	0.45948836
240	0x3e1e1ed8	0.15441453
241	0xbef74b0a	-0.48299438
242	0xbd8baac3	-0.068196796
243	0x3e15cafe	0.14628217
244	0x3fcfdb33	1.6238769
245	0xbdc68f4b	-0.096953
246	0x3e2d7ef6	0.16942963
247	0xbe35a38a	-0.17738166
248	0x3e906a9e	0.28206342
249	0xbedff1b1	-0.43739083
250	0x3d7f4585	0.06232216
251	0xbef68720	-0.48149967
252	0x3ea8d62f	0.3297591
253	0xbdc5c5fa	-0.09656902
254	0x3d3278ba	0.043572165
255	0x3f3db97e	0.74111164

decoder.linear4.bias f4 [29]
0	0xbe107ad1	-0.1410935
1	0x3e638852	0.22219971
2	0x3edd6541	0.43241313
3	0x3f2b2de5	0.66866904
4	0x3ee79fd0	0.45239115
5	0x3d4db25f	0.050218936
6	0xbe9ef50e	-0.31046337
7	0x3ea56dc4	0.32310307
8	0xbee44cdd	-0.44589892
9	0x3f5dd5ce	0.86654365
10	0xbc9a35c0	-0.018824458
11	0xbf1bd0f7	-0.6086573
12	0x3d8ca05c	0.068665236
13	0xbe45e123	-0.19324164
14	0xbed3c813	-0.41363582
15	0x3f923193	1.1421379
16	0x3db7e3de	0.08979009
17	0xbf83d45b	-1.0299181
18	0x3ea32489	0.31863812
19	0xbe9f752f	-0.3114409
20	0x3f1b1354	0.6057637
21	0x3e865923	0.2623988
22	0xbe55fd96	-0.20897517
23	0x3bb2dfad	0.005458793
24	0xbe77fa9e	-0.24216697
25	0x3e77322d	0.24140234
26	0x3e988561	0.2978926
27	0xbea0a446	-0.3137533
28	0xbf153c47	-0.582951
